checkpoints/linreg_classifier_v2.pth (torch, 4498 bytes, 10 tensors)

linear.weight f4 [4, 15]
000000 37 bb d4 3e fe 55 60 3c b2 e6 8d 3e f5 60 34 bd
       0.41549084 0.013692377 0.2771507 -0.044037778
000010 83 f1 73 bd 0c 30 41 bd 77 d4 c6 bb 7c 77 c4 bc
       -0.059556495 -0.04716496 -0.0060678083 -0.023982756
000020 a2 65 8a bc 3a 3c e9 bc a3 60 c5 3c b8 f7 98 bb
       -0.016894165 -0.028471101 0.024093932 -0.0046682023
000030 13 b4 03 3c 81 b2 59 bd f3 fb 8b ba 70 d7 29 be
       0.0080385385 -0.05314875 -0.0010679945 -0.16586089
000040 e5 05 82 bc 3b 10 74 bd dc 2f fa bd 6f 92 88 3e
       -0.015871951 -0.05958579 -0.1221616 0.2667422
000050 8f 39 ea bd 62 23 3d bd 0e 9a a9 3e 72 ea c5 3d
       -0.1143676 -0.04617632 0.33125347 0.096638575
000060 95 00 ae bd 57 60 19 bb f5 53 9c bc 4f 2b 83 bc
       -0.08496205 -0.002340337 -0.019083003 -0.016011862
000070 1e 26 17 be dc a0 3b 3e b3 2e 98 be 31 a5 03 3c
       -0.14760634 0.18323082 -0.2972313 0.00803499
000080 12 e9 42 bc 7b 69 54 3d a5 61 8e be 95 bc 4e 3a
       -0.011896389 0.051858407 -0.27808872 0.0007886377
000090 a1 93 28 3e 65 84 59 be a8 c5 d2 3b c9 79 53 3e
       0.16462566 -0.21241911 0.006432254 0.20651926
0000a0 a3 36 01 3e bb a1 38 3d 5a 28 c4 be d8 a6 1a be
       0.12618499 0.045076113 -0.38312036 -0.15102708
0000b0 48 22 fd bd 11 d8 9b bc a1 19 d3 bd fe 23 b5 3c
       -0.12360054 -0.019023927 -0.10307623 0.022111889
0000c0 54 85 e4 3d 19 68 f1 bd 72 c3 66 3d 69 8d 4e 3c
       0.11158243 -0.11787433 0.056338735 0.012606957
0000d0 2a 3d 93 bc 01 41 a8 bd a6 ec b5 bb 2f a2 57 3e
       -0.017973501 -0.082155235 -0.0055518923 0.21057962
0000e0 cb b8 04 bc 4f fc f1 3e 12 66 9c 3e 5c 46 be 3c
       -0.008100699 0.4726281 0.30546623 0.02322691

linear.bias f4 [4]
000000 ca c2 2a be 49 96 2b 3e b9 5d 20 3e 79 49 6a 3e
       -0.16675869 0.16756548 0.15660752 0.2287959

bn1.weight f4 [4]
000000 2b 54 ca 3f 6b 5f c1 3f ff 6c 85 3f 4c 0e af 3f
       1.5806936 1.5107244 1.0423888 1.3676238

bn1.bias f4 [4]
000000 15 4a 75 be 79 65 47 be fa 48 6b be e9 cc 75 3e
       -0.23954041 -0.19472302 -0.22977057 0.24003948

bn1.running_mean f4 [4]
000000 1c 5f f0 bd 7d c9 e1 3d 0a 56 32 bc d6 e2 d9 3e
       -0.11736891 0.11024759 -0.010884771 0.42555875

bn1.running_var f4 [4]
000000 5f 68 2d 3d 59 7c 6e 3d a1 83 4b 3d f7 5e be 3d
       0.042335864 0.058224056 0.049686078 0.09295457

momentum_buffer f4 [4, 15]
000000 56 0d a7 3d 00 9a ed 3c 7d b8 37 be 8e 42 72 bd
       0.081568405 0.029004097 -0.1794147 -0.059145503
000010 fe 87 b3 bd f0 ab 2f bd cd 2f 3d bd f0 ff b8 39
       -0.08766173 -0.04288858 -0.046188165 0.00035285903
000020 92 a8 f3 bb 71 fc af bc e8 be e5 3b ad 3a cc bc
       -0.0074358666 -0.021482678 0.007011283 -0.024930323
000030 11 0a 27 bc ec fb 94 bd 7c 61 9c bb da f0 f5 3b
       -0.010195271 -0.07274613 -0.004772363 0.0075055184
000040 41 6a bf 3b 10 cf 8f 3c 6a 0a 06 3c 22 db 09 bd
       0.005841524 0.01755479 0.008181194 -0.033656247
000050 4d 89 07 bd a9 f3 bf bc 0e 3d 9c 3c 34 c0 09 be
       -0.033089925 -0.023431616 0.019072082 -0.13452226
000060 04 88 df bc 04 fc b1 bb 9e 6c 60 3c d0 d8 75 bb
       -0.027286537 -0.005431654 0.013697771 -0.0037513264
000070 70 33 be bd 5a 8c 1b bc 80 f8 82 3d f9 7b 48 3d
       -0.09287155 -0.009493912 0.06395054 0.048946355
000080 3c 55 03 3e 22 48 89 3d 28 ca a8 bd a9 89 b2 bd
       0.12825483 0.06703211 -0.08241683 -0.08717663
000090 96 2b d3 3d d4 6c e0 3d 1d 77 cd 3d 69 99 45 bd
       0.10311048 0.10958257 0.10032485 -0.048242006
0000a0 38 22 7e 3e dd cd 33 3d 2e d4 bb 3c 40 24 f7 3d
       0.24817741 0.0438975 0.022928324 0.12067461
0000b0 1e 45 81 bc 4e 1d 36 3d 63 00 5f bd 35 98 e1 3c
       -0.015780028 0.04446154 -0.05444373 0.027538398
0000c0 cb bb 8a bc 40 5e 41 bd b8 54 10 bd 2f 08 d7 bc
       -0.01693525 -0.047209024 -0.035237044 -0.02624902
0000d0 a0 c6 62 3d 3a 43 8a bc 8c 71 24 3e 94 b2 4e 3b
       0.055365205 -0.01687776 0.1605894 0.0031539546
0000e0 52 4e e2 bc e3 dc 1f 3d f0 1b b0 bd d9 96 c7 3c
       -0.027625237 0.039029013 -0.08599079 0.024363922

momentum_buffer f4 [4]
000000 1d e5 2e b9 ef b0 2f 39 85 39 24 39 7d dd 6f 39
       -0.00016679284 0.00016755213 0.00015661686 0.00022875327

momentum_buffer f4 [4]
000000 10 5f c4 be 9d 2b e1 be e5 db 6e be 4f ec e7 be
       -0.38353777 -0.43978587 -0.2332607 -0.45297477

momentum_buffer f4 [4]
000000 c0 7c 4a 3e c8 4a 24 3e 2a 94 51 3e f6 c7 dc bc
       0.19774151 0.16044152 0.20466676 -0.026950818
